results/DDPG/checkpoint.pth (torch_old, 607159 bytes, 11 tensors)

fc1.weight f4 [256, 33]
0	0x3df52233	0.119694136
1	0x3e90991f	0.28241822
2	0xbe486bae	-0.19572327
3	0x3beb3ea5	0.0071790987
4	0x3de79210	0.11307156
5	0xbe2aab31	-0.16666867
6	0xbcf5f38b	-0.030023357
7	0xbca27f46	-0.01983608
8	0x3e037ced	0.12840624
9	0xbd90fca1	-0.07079435
10	0xbc3c1599	-0.011479759
11	0xbca3efbe	-0.020011779
12	0xbca25f09	-0.019820707
13	0xbc5c4ab5	-0.013445546
14	0x3dbb5bcb	0.091483675
15	0x3e91efec	0.28503358
16	0xbc20cf62	-0.009815069
17	0x3cb9623f	0.022629855
18	0xbc2be9b4	-0.010492731
19	0xbc2624d3	-0.0101406155
20	0xbd8ff90b	-0.07029923
21	0xbd243e44	-0.040098444
22	0x3e347595	0.17622979
23	0xbcf4fc26	-0.02990539
24	0x3db52e8c	0.08846769
25	0xbd08d6d1	-0.03340799
26	0x3d98b0bf	0.07455587
27	0x3d76b1e4	0.060228243
28	0x3d93f07e	0.072236046
29	0xbd48e668	-0.049047858
30	0xbe01a80b	-0.1266176
31	0xbd47d436	-0.048786364
32	0x3ef126ca	0.47099906
33	0x3d205670	0.039144933
34	0xbc12f6e5	-0.008969997
35	0xbd7e935a	-0.062152244
36	0x3cd4be73	0.02596972
37	0x3d37c064	0.044861212
38	0xbc8a1b8e	-0.016858842
39	0xbe81b592	-0.2533384
40	0xbcb45ef1	-0.022017928
41	0x3e50121c	0.20319408
42	0x3dd61636	0.10453455
43	0x3dc588a9	0.096452065
44	0x3b9d5530	0.004801415
45	0x3dc0ca8f	0.09413635
46	0xbdbe29b1	-0.09285296
47	0x3f068192	0.5254146
48	0xbe425119	-0.18976249
49	0xbde29f3c	-0.11065528
50	0xbd2716c6	-0.040793203
51	0xbdc99da2	-0.09844519
52	0x3e828e5a	0.2549923
53	0x3e4acdf6	0.1980513
54	0x3dcf5bc7	0.10124927
55	0x3d9b88e6	0.07594471
56	0xbd999b39	-0.075003095
57	0x3da6b497	0.081399135
58	0xbce7f331	-0.028314205
59	0x3cd439bf	0.025906442
60	0x3cf45137	0.029823883
61	0x3b420bce	0.0029609087
62	0x3c5434a0	0.012952
63	0xba5a06e1	-0.0008317065
64	0x3ccbd5f8	0.024882302
65	0xbf82f432	-1.0230772
66	0xbe03d8f1	-0.12875725
67	0xbd886a0e	-0.06660853
68	0x3e4bbfe8	0.19897425
69	0xbe2d41e0	-0.1691966
70	0xbdad34e5	-0.084573545
71	0xbe6f7000	-0.23382568
72	0x3d92e4b1	0.07172526
73	0x3dfffe48	0.12499672
74	0x3e9686c3	0.2939969
75	0x3aaa3e31	0.0012988505
76	0x3d2624b4	0.040562347
77	0x3d9736db	0.0738351
78	0xbd102c33	-0.0351984
79	0xbdb47a77	-0.08812421
80	0x3f321267	0.6955933
81	0xbe703249	-0.23456682
82	0x3d1a9f96	0.03774985
83	0xbd89c642	-0.06727268
84	0x3e037f01	0.12841417
85	0xbdc7ba63	-0.09752347
86	0xbabc1ceb	-0.001435188
87	0x3d49df62	0.0492853
88	0x3a8da3c4	0.0010806252
89	0x3c317202	0.010830404
90	0x3e0294f4	0.12752134
91	0xbcab3992	-0.020901475
92	0x3dbeff0d	0.09325991
93	0x3d358722	0.044318326
94	0xbe14d897	-0.14535747
95	0x3cd90fd0	0.026496798
96	0xbdfead66	-0.12435417
97	0xbd77233a	-0.06033633
98	0xbf067369	-0.5251985
99	0x3f20079a	0.625116
100	0x3e1fa0b3	0.15588646
101	0xbe960a52	-0.2930475
102	0xbb97a960	-0.0046283454
103	0x3e275688	0.16341603
104	0x3e3ccf06	0.18438348
105	0xbe98360e	-0.2972874
106	0x3d8e00dc	0.06933758
107	0xbeed5830	-0.46356344
108	0x3e47cb88	0.19511235
109	0x3e30c887	0.17263995
110	0xbd2bedae	-0.041974716
111	0x3d8bb9f5	0.06822578
112	0x3b5c6425	0.0033629027
113	0x3de0af1c	0.109708995
114	0x3e39883d	0.18118377
115	0x3e231a84	0.15928084
116	0x3e0959fb	0.13413231
117	0xbd3b09cf	-0.04566365
118	0xbd26ea30	-0.040750682
119	0xbd75fc41	-0.06005502
120	0xbe227110	-0.15863442
121	0xbcf531d5	-0.029930988
122	0x3d203f36	0.039122783
123	0x3ddc7793	0.107649945
124	0xbdfbda69	-0.12297518
125	0xbde48015	-0.11157242
126	0x3daabfff	0.083374016
127	0xbde440d7	-0.1114518
128	0xbd7fb8e2	-0.062432177
129	0xbe051ee3	-0.13000064
130	0xba014700	-0.00049315393
131	0xbea58a01	-0.3233185
132	0xbeda9c1e	-0.42697233
133	0x3eb62147	0.35572264
134	0xbd281d32	-0.041043468
135	0xbe0eae61	-0.13933708
136	0xbeb37704	-0.3505174
137	0x3d826e36	0.06368677
138	0xbd7f8e3a	-0.062391497
139	0xbd595e52	-0.053068466
140	0xbdde924d	-0.108677484
141	0x3d263110	0.040574133
142	0xbcfba551	-0.030718477
143	0x3ca8fb7d	0.020627731
144	0x3b03cff1	0.0020112956
145	0x3eaa1266	0.33217162
146	0x3dcfe232	0.10150565
147	0x3e29f80b	0.16598527
148	0x3da015b9	0.07816643
149	0x3dc93c5d	0.098259665
150	0xbe3cbe27	-0.18431912
151	0xbc431e01	-0.011909009
152	0x3bb62b92	0.005559393
153	0xbd6412aa	-0.055681862
154	0xbcd7cc52	-0.026342545
155	0x3e6326d8	0.22182786
156	0x3b377e13	0.002799873
157	0x3bad3b77	0.00528663
158	0xbea82121	-0.32837775
159	0x3dbafdf4	0.09130469
160	0x3dd5e04d	0.104431726
161	0x3d7e76aa	0.062124886
162	0xbd2fff2b	-0.042967957
163	0x3d50ce44	0.05097796
164	0xbfa22a7f	-1.2669219
165	0xbe7e4e3b	-0.2483453
166	0x3d86d17d	0.065829255
167	0xbcf09bb3	-0.029371118
168	0xbd80cf53	-0.06289544
169	0xbe0588bd	-0.13040443
170	0xbd4c3205	-0.04985239
171	0x3e3515ae	0.17684051
172	0x3d9f5542	0.077799335
173	0x3d23a1b2	0.039949127
174	0xbdc4c144	-0.09607175
175	0x3d94eb06	0.0727139
176	0x3ca84a75	0.020543316
177	0xbd154e07	-0.036451366
178	0x3e0e5990	0.13901353
179	0x3dba015f	0.09082293
180	0x3cb9616e	0.022629466
181	0xbd94763e	-0.072491154
182	0xbd00a5d4	-0.031408146
183	0x3dd8a22c	0.10577807
184	0xbd42631b	-0.047457796
185	0xbd273c05	-0.040828723
186	0x3d76c7eb	0.06024925
187	0xbcced4de	-0.025247987
188	0x3dfb3748	0.122664034
189	0x3d637dc6	0.05553987
190	0xbd8a88e4	-0.06764391
191	0xbe601326	-0.21882305
192	0x3d712147	0.058869626
193	0xbe8daf8a	-0.27672988
194	0x3d6c9c58	0.05776629
195	0xbe034807	-0.12820445
196	0x3d107300	0.035265923
197	0x3fb9f22a	1.4527028
198	0xbeddbada	-0.4330662
199	0x3d8ad64f	0.06779157
200	0x3e2d55c6	0.16927251
201	0xbe121e34	-0.14269334
202	0xbd33aa39	-0.04386351
203	0x3e44c9ad	0.19217558
204	0x3db56c2a	0.08858521
205	0x3c2b89c4	0.010469858
206	0x3deb7cdd	0.11498425
207	0x3c7a9103	0.015293363
208	0x3c07e04b	0.008293222
209	0xbc4d9df5	-0.012549867
210	0x3d4b054c	0.0495656
211	0x3ea7deac	0.32787073
212	0x3dd7e5f2	0.105419055
213	0x3d9f2da2	0.07772376
214	0x3d628ea5	0.055311818
215	0x3d14b1d9	0.03630242
216	0x3e1c4902	0.15262225
217	0xbd5cddcc	-0.05392246
218	0x3d34b3ec	0.0441169
219	0xbdcdbedc	-0.10046169
220	0xbdc16aaf	-0.094441764
221	0x3d41b3da	0.04729066
222	0x3d03fa32	0.032221027
223	0x3c885942	0.016644124
224	0xbe9cb560	-0.30607128
225	0x3b6fc5a0	0.00365863
226	0x3e0ad33a	0.13557139
227	0x3c267050	0.010158613
228	0xbb922c98	-0.0044608824
229	0x3cf02da4	0.029318638
230	0xbf567aca	-0.8378111
231	0x3d0a8d22	0.033826
232	0x3e10ca8d	0.14139767
233	0xbf1c4586	-0.61043584
234	0xbe045509	-0.12923063
235	0x3d99d400	0.07511139
236	0x3da7537a	0.08170219
237	0xbecbe89c	-0.39825904
238	0x3c14feda	0.0090939645
239	0xbd7d8b3b	-0.06190036
240	0x3cb3f6fe	0.021968361
241	0x3db62ccf	0.08895265
242	0x3dafbd2a	0.08581002
243	0xbd9482aa	-0.07251485
244	0xbdd9b54e	-0.10630284
245	0x3e0c2e87	0.13689624
246	0x3e06a71f	0.13149689
247	0x3caea782	0.021320108
248	0xbc2decb0	-0.010615513
249	0x3e30aa95	0.17252572
250	0x3d126a2a	0.035745777
251	0x3d8cebb9	0.06880898
252	0x3b5f5f33	0.0034083843
253	0x3c15704b	0.009121011
254	0xbdb95556	-0.0904948
255	0x3d672c5f	0.0564388

fc1.bias f4 [256]
0	0xbe2bcfda	-0.16778508
1	0x3d957b41	0.072988994
2	0x3db2e055	0.08734194
3	0xbc17e6f1	-0.009271369
4	0xbd8b47e8	-0.068008244
5	0xbe5499b3	-0.20761757
6	0xbe157ded	-0.14598818
7	0xbe2add61	-0.16686012
8	0xbe96e28c	-0.29469717
9	0xbe87240e	-0.26394695
10	0xbe2a3863	-0.16623072
11	0xbda14392	-0.07874216
12	0xbe202652	-0.15639618
13	0xbe73ebe2	-0.23820451
14	0xbe4e6434	-0.20155412
15	0xbe2ec81d	-0.17068525
16	0xbd67d3b8	-0.056598395
17	0xbe635d19	-0.22203483
18	0xbdec79fe	-0.11546706
19	0x3dcdb04b	0.10043391
20	0x3df7a0a3	0.12091186
21	0xbd84b39f	-0.064795725
22	0x3dfcaa57	0.12337177
23	0xbde586e8	-0.11207372
24	0xbd64e655	-0.055883724
25	0xbdda96c9	-0.10673291
26	0xbea331bd	-0.31873885
27	0xbe4c8781	-0.19973566
28	0xbc38a040	-0.011268675
29	0xbd2c12bf	-0.042010065
30	0x3e04cd26	0.12968883
31	0x3e4355a2	0.19075635
32	0x3dccdd1e	0.10003112
33	0x3d985f90	0.07440102
34	0xbe9f221f	-0.3108072
35	0x3cebe10c	0.028793834
36	0xbd5d6979	-0.054055665
37	0xbde249b0	-0.11049211
38	0xbe8f7a47	-0.28022978
39	0xbe885a74	-0.2663151
40	0xbe2dfe09	-0.16991438
41	0xbda5d386	-0.080969855
42	0xbe860a34	-0.2617966
43	0xbcab9fb2	-0.020950172
44	0xbe7803ec	-0.24220246
45	0xbe6237a5	-0.22091539
46	0xbc623387	-0.01380623
47	0x3b32783f	0.0027232317
48	0xbd344e16	-0.04401978
49	0x3d54b1db	0.05192743
50	0xbee1df51	-0.4411569
51	0x3e87fde8	0.26560903
52	0xbda188e3	-0.07887437
53	0x3e8c0d48	0.27353883
54	0x3d60f645	0.05492236
55	0xbe414906	-0.18875512
56	0xbd60a095	-0.054840643
57	0xbe16a8b5	-0.14712794
58	0xbd49bfa4	-0.04925503
59	0xbe424a16	-0.18973574
60	0xbe4ba5b7	-0.19887434
61	0xbdeedbf1	-0.11663044
62	0xbe172040	-0.14758396
63	0xbc6ec612	-0.014573591
64	0xbe88422e	-0.2661299
65	0xbee92c3e	-0.45541567
66	0xbe2c2b40	-0.16813374
67	0xbe63386f	-0.22189496
68	0x3de5b7e1	0.11216713
69	0x3d4c3878	0.04985854
70	0xbe50725c	-0.20356125
71	0xbccbe1d6	-0.02488796
72	0xbe7be4b7	-0.24598967
73	0xbd9794b9	-0.074014135
74	0xbd3a9b53	-0.045558285
75	0xbe6c197a	-0.23056594
76	0xbdb96996	-0.09053342
77	0xbe539ae5	-0.20664556
78	0x3b4cfc6c	0.0031278385
79	0xbec8b0ca	-0.3919738
80	0xbe3f6e5d	-0.18694444
81	0x3e3aa0c7	0.18225394
82	0xbe14f1c0	-0.14545345
83	0xbe76edc8	-0.24114144
84	0xbceeb6d5	-0.029139915
85	0xbe5e3592	-0.21700123
86	0x3ea39180	0.31946945
87	0x3d506a13	0.05088241
88	0xbdaf49ee	-0.08559023
89	0xbe764e2d	-0.24053259
90	0x3cf026f5	0.029315451
91	0xbe975a53	-0.295611
92	0xbe9994d4	-0.2999636
93	0xbdf0b4d9	-0.11753244
94	0xbdcdfbd0	-0.10057795
95	0xbcd2ccab	-0.025732359
96	0x3e4f610b	0.20251863
97	0xbd6f5f32	-0.058440395
98	0xbe4bf073	-0.19915943
99	0xbeb07d02	-0.34470373
100	0xbdfbe0ef	-0.12298762
101	0xbdb06631	-0.086132415
102	0xbdd7c834	-0.105362326
103	0x3ca51d37	0.020155532
104	0x3e0f5947	0.139989
105	0xbcd62769	-0.02614184
106	0xbdc7d6c1	-0.09757758
107	0xbea8b6a6	-0.3295185
108	0xbd978b2b	-0.07399591
109	0xbd1e9363	-0.038714778
110	0xbe7af4c3	-0.24507432
111	0x3e268a27	0.16263638
112	0x3d078cb2	0.033093162
113	0xbc298bf1	-0.010348306
114	0xbd921c2e	-0.07134281
115	0x3dabbde8	0.08385831
116	0xbe3a96e6	-0.18221626
117	0xbdd9546d	-0.10611806
118	0x38bc6dc2	8.9849826e-05
119	0xbe370a70	-0.17875075
120	0xbe8d1652	-0.27556092
121	0xbd6544ff	-0.055974003
122	0xbe8774de	-0.2645635
123	0xbe0509e9	-0.12992062
124	0xbe3eca12	-0.18631771
125	0xbe944547	-0.28959104
126	0xbdbd30c9	-0.09237821
127	0x3e15008a	0.14550987
128	0x3c6923d9	0.014229738
129	0xbde7849f	-0.11304592
130	0xbe1ee5df	-0.15517376
131	0xbd9a4dc2	-0.075343624
132	0xbebcf4b2	-0.36905438
133	0x3e075204	0.1321488
134	0xbd90a66f	-0.07062995
135	0x3da3ca3e	0.07997559
136	0x3e2c3f80	0.16821098
137	0xbe00e925	-0.12588938
138	0x3e2f65e4	0.17128712
139	0x3da3ef7e	0.08004664
140	0xbe06c9dc	-0.1316294
141	0xbe69b1cb	-0.22821729
142	0x3d0786c1	0.033087496
143	0x3dedaea3	0.11605575
144	0xbd182557	-0.037144985
145	0x3e0f5b9a	0.13999787
146	0xbcf06f9d	-0.029350096
147	0x3c5bd5cd	0.013417673
148	0xbb0fd30d	-0.0021945864
149	0xbe689e82	-0.22716716
150	0xbe343201	-0.175972
151	0x3b8ee876	0.0043612076
152	0xbd608595	-0.054814894
153	0x3cddff03	0.027099138
154	0xbe1c58cc	-0.15268248
155	0xbe007555	-0.12544759
156	0xbe0b8255	-0.13623936
157	0xbc6eb4b7	-0.014569453
158	0xbe25d7be	-0.1619558
159	0x3d01a63e	0.03165268
160	0xbe549dcc	-0.2076332
161	0x3d024ace	0.03180962
162	0xbe3dc585	-0.18532379
163	0xbd50086a	-0.050789274
164	0xbe9621b3	-0.29322585
165	0xbded525d	-0.11587975
166	0x3d53cde2	0.051710017
167	0xbdeee3ee	-0.11664568
168	0xbea4fcfd	-0.32224265
169	0xbe5f29c0	-0.2179327
170	0x3dcaedb6	0.09908621
171	0xbe30069d	-0.17190023
172	0x3c783b53	0.015150863
173	0xbcd08af4	-0.025456883
174	0x3e0d9269	0.13825382
175	0xbbaff258	-0.005369466
176	0xbdc0ba71	-0.09410561
177	0xbd3f95b0	-0.046773612
178	0xbe3728da	-0.17886677
179	0x3dba3824	0.09092739
180	0x3bb6f82a	0.0055837827
181	0x3e805e9b	0.25072178
182	0x3d19fb41	0.03759313
183	0x3d308525	0.043095727
184	0x3df1cb2b	0.11806329
185	0xbbca6f58	-0.006177824
186	0xbe5101c1	-0.20410825
187	0xbe92fa29	-0.28706482
188	0x3e299d61	0.16563942
189	0xbe68467d	-0.22683139
190	0xbf161f4c	-0.58641505
191	0xbe72beb3	-0.23705558
192	0xbdeff1e5	-0.117160596
193	0x3e4f226f	0.20227979
194	0xbc5783b9	-0.013153964
195	0xbd8f8bca	-0.070090845
196	0xbd6bdf7a	-0.05758617
197	0xbea57f49	-0.32323673
198	0xbe1570ad	-0.14593764
199	0x3d812362	0.06305577
200	0xbd511a91	-0.051050726
201	0xbeb8faed	-0.3612894
202	0xbe2873b2	-0.16450384
203	0xbe515f3f	-0.2044649
204	0xbe4b48bf	-0.19851969
205	0x3e082b8a	0.13297859
206	0xbe2044e9	-0.15651287
207	0x3e2774ec	0.16353196
208	0xbe9a03ab	-0.30080923
209	0xbd99ad13	-0.075037144
210	0x3dc4a0e4	0.09601
211	0xbe990c31	-0.29892114
212	0xbe026db9	-0.12737168
213	0xbe7cf5ae	-0.24703094
214	0x3e80bec8	0.25145555
215	0xbd817788	-0.06321627
216	0xbdd89d10	-0.10576832
217	0xbe67b458	-0.2262739
218	0xbb03d3df	-0.0020115299
219	0xbe45a3b4	-0.19300729
220	0xbe122d22	-0.1427503
221	0x3e4e149f	0.20125054
222	0x3e034e61	0.12822868
223	0x3e0d6ed8	0.13811815
224	0xbd6af7e4	-0.057365313
225	0x3c892716	0.01674227
226	0xbeb12c79	-0.34604242
227	0xbe0abc70	-0.13548446
228	0xbe8ce765	-0.2752029
229	0xbdf9591d	-0.121752
230	0xbe4942bd	-0.19654365
231	0xbe2ff48e	-0.17183134
232	0xbe8a554c	-0.270182
233	0xbcbfdfd1	-0.023422154
234	0xbead47b9	-0.33843783
235	0xbe587b21	-0.2114072
236	0xbecde1a7	-0.40211222
237	0x3dba73ba	0.09104104
238	0xbe0df0eb	-0.13861434
239	0xbe91632c	-0.28395975
240	0x3e31e7b7	0.17373548
241	0xbd00f43d	-0.031482924
242	0xbe1799c7	-0.14804755
243	0x3d48c358	0.04901442
244	0xbc2730e6	-0.010204529
245	0xbe3d6da4	-0.18498856
246	0x3ece3e8c	0.40282094
247	0xbe05971d	-0.13045926
248	0xbe437cb0	-0.19090533
249	0xbee21d67	-0.44163057
250	0x3dafd1d3	0.08584943
251	0xbe7e6a72	-0.24845293
252	0xbd995ee3	-0.07488801
253	0xbef00944	-0.4688207
254	0xbda0f61d	-0.078594424
255	0xbe5175a7	-0.20455037

fc2.weight f4 [256, 256]
0	0x3e976462	0.29568774
1	0xb8205264	-3.8223705e-05
2	0x3e29fb88	0.16599858
3	0xbe70440c	-0.23463458
4	0xbec085f3	-0.37602195
5	0xbe523b6c	-0.2053048
6	0xbde37b6a	-0.11107524
7	0xbca4c98b	-0.020115634
8	0xbe6360dd	-0.22204919
9	0xbdfc7228	-0.12326461
10	0xbe437095	-0.19085915
11	0xbe03576e	-0.1282632
12	0xbc652fd6	-0.013988456
13	0x3e4bda0b	0.19907396
14	0xbe2b2b6c	-0.16715783
15	0x3e95737a	0.29189664
16	0x3f080f26	0.53148115
17	0xbd140608	-0.036138564
18	0x3eaef4f2	0.34171253
19	0x3d8bf7a2	0.068343416
20	0xbdca6e5b	-0.0988433
21	0xbba16f45	-0.0049265944
22	0xbd0ba006	-0.034088157
23	0x3e25e2de	0.16199824
24	0xbd646f82	-0.055770405
25	0xbf26454e	-0.649495
26	0x3dcb20ab	0.0991834
27	0xbef02eb7	-0.4691064
28	0xbe3803af	-0.17970155
29	0x3dc0710c	0.09396562
30	0xbde6236a	-0.112372234
31	0x3e08210b	0.13293855
32	0xbc8d10f0	-0.01721999
33	0xbe006964	-0.12540203
34	0x3e868cdf	0.2627935
35	0xbee093eb	-0.43862852
36	0xbe3679e5	-0.17819937
37	0xbd465c93	-0.04842813
38	0xbe21872b	-0.15774219
39	0xbd1dac5f	-0.038494464
40	0xbe0cf500	-0.13765335
41	0xbcdbdbe7	-0.026838256
42	0x3c499c23	0.012305292
43	0x3e7672d4	0.24067241
44	0xbcd84de8	-0.026404336
45	0x3b3592d2	0.002770592
46	0x3dacc47b	0.08435913
47	0x3ae81938	0.0017707711
48	0xbe476965	-0.19473799
49	0x3e3dc855	0.18533452
50	0xbe08cb67	-0.13358842
51	0x3e929116	0.28626317
52	0xbe334de5	-0.17510183
53	0xbd754568	-0.059880644
54	0xbe7e24f3	-0.24818783
55	0x3cde3f50	0.0271298
56	0xbe3a4988	-0.18192112
57	0x3ea2bbef	0.31784007
58	0xbe21489c	-0.15750355
59	0xbe4c1310	-0.19929147
60	0xbe302feb	-0.17205779
61	0x3d79ebdb	0.061015945
62	0xbc588b2b	-0.013216774
63	0x3ec87e46	0.3915884
64	0x3c4db1e0	0.012554616
65	0x3c95382e	0.018215265
66	0xbe7a3f58	-0.24438226
67	0xbe25e5c1	-0.16200925
68	0x3e1b4de9	0.15166439
69	0xbe4e490d	-0.20145054
70	0x3d1dfdce	0.038572125
71	0x3dee64d1	0.11640323
72	0xbe3df6ff	-0.18551253
73	0x3e8c368c	0.27385366
74	0xbb91ada0	-0.0044457465
75	0x3c087c0f	0.008330359
76	0xbe1cfe55	-0.15331395
77	0xbc1b8fc0	-0.009494722
78	0xbed0d822	-0.40789896
79	0xbe111ef2	-0.14171961
80	0xbdc5cacc	-0.09657821
81	0x3d4f69d6	0.050638042
82	0x3e92df70	0.28686094
83	0xbeece3ab	-0.46267447
84	0x3d4d926f	0.050188478
85	0xbd5ababf	-0.05340075
86	0xbd29bf2a	-0.041442074
87	0x3c6f22e9	0.014595726
88	0x3eb160e8	0.34644246
89	0xbe80b552	-0.25138336
90	0xbe568f1c	-0.2095303
91	0xbea8def2	-0.32982594
92	0xbde875c7	-0.11350589
93	0xbc78e148	-0.01519043
94	0xbe38b8be	-0.18039224
95	0x3e950620	0.29106236
96	0xbeae33c4	-0.3402387
97	0xbed3aa4d	-0.41340867
98	0x3e713f0f	0.23559211
99	0x3d97188c	0.07377729
100	0x3e382926	0.17984447
101	0xbec6255b	-0.38700375
102	0xbead5191	-0.33851293
103	0x3d889d2a	0.06670602
104	0xbe1f6d02	-0.15568927
105	0xbe3cdbb8	-0.18443191
106	0xbd5acbd3	-0.05341704
107	0x3df73318	0.12070292
108	0xbe07f25e	-0.1327605
109	0xbdea3160	-0.11435199
110	0xbe22483b	-0.15847866
111	0xbef2ae2d	-0.4739851
112	0xbe128f83	-0.14312558
113	0xbe5a9f35	-0.21349795
114	0xbda71fd3	-0.08160367
115	0xbed3a4ae	-0.41336578
116	0xbc27339e	-0.010205178
117	0x3d48f297	0.049059477
118	0x3d255342	0.040362604
119	0x3ed4221b	0.4143227
120	0x3e975f29	0.2956479
121	0x3e31ed8e	0.17375776
122	0xbecec807	-0.40386984
123	0x3e4fa916	0.20279345
124	0xbc7dc2e1	-0.015488357
125	0x3e15b77e	0.14620778
126	0xbe35ae70	-0.17742324
127	0x3d849763	0.06474187
128	0xbe9d4d76	-0.3072316
129	0x3d158754	0.036506012
130	0xbdbe21bd	-0.09283779
131	0x3d608650	0.05481559
132	0xbd1c70c2	-0.03819347
133	0xbe6a2563	-0.22865824
134	0xbd97944f	-0.074013345
135	0xbdc235fb	-0.09482952
136	0x3e68e650	0.22744107
137	0xbda58b8e	-0.080832586
138	0x3eb93488	0.3617289
139	0xbd94a6ff	-0.072584145
140	0xbe327f25	-0.17431314
141	0x3d18261e	0.037145726
142	0xbeb93732	-0.36174923
143	0x3e71227d	0.23548312
144	0xbe4cde3f	-0.20006655
145	0x3b1c1930	0.0023818724
146	0x3d401f4d	0.04690485
147	0xbd1e7983	-0.0386901
148	0xbd3275ef	-0.0435695
149	0x3e9bb703	0.30413064
150	0xbb53cb30	-0.0032317154
151	0xbee0e66a	-0.43925792
152	0xbe610a08	-0.21976483
153	0xbe86f767	-0.26360628
154	0x3e8c15b9	0.27360323
155	0xbe43bcfd	-0.19115062
156	0xbe8ed296	-0.2789504
157	0x3dbfd4af	0.09366738
158	0xbd1c3fc6	-0.038146757
159	0xbe281eb8	-0.16417968
160	0x3f022915	0.50843936
161	0x3e861f6f	0.26195857
162	0xbede2eb6	-0.43395013
163	0xbe87d4de	-0.26529592
164	0x3e8d1c95	0.2756087
165	0x3e8936fc	0.26799762
166	0x3dbfe21e	0.093693
167	0xbc8d4adf	-0.017247615
168	0x3ab8807e	0.001407638
169	0x3de0b7ef	0.109725825
170	0xbf02d2e0	-0.5110302
171	0x3ba1d82f	0.004939101
172	0xbe2f3d99	-0.17113341
173	0xbe8559f5	-0.26045194
174	0xbe26b43d	-0.16279693
175	0x3d9166a5	0.07099656
176	0x3d32b348	0.043628007
177	0x3e9d8253	0.30763492
178	0xbe6fb3fa	-0.234085
179	0x3e311f78	0.1729716
180	0x3e67c6be	0.22634408
181	0xbe6b218b	-0.22962014
182	0x3df677f2	0.120345965
183	0xbf00da8a	-0.50333464
184	0xbe08a2cd	-0.13343354
185	0x3e1ca085	0.15295608
186	0x3d79fa76	0.061029874
187	0xbd5fffc1	-0.054687265
188	0xbdf52f8d	-0.1197196
189	0x3d60fb6f	0.054927286
190	0xbe10322f	-0.14081644
191	0xbe019f80	-0.126585
192	0x3e9f60d5	0.31128564
193	0x3e262fd7	0.16229187
194	0x3e377572	0.17915896
195	0xbc891c49	-0.01673712
196	0xbe136425	-0.14393671
197	0xbd2ba63d	-0.041906584
198	0x3e5dadf6	0.21648392
199	0x3dbb9bd0	0.09160578
200	0xbd1ffd50	-0.039059937
201	0x3dfa216f	0.12213408
202	0x3d87aa7d	0.06624315
203	0x3dc79929	0.0974601
204	0x3e966846	0.2937643
205	0x3e8c7b10	0.2743764
206	0xbe35c835	-0.17752154
207	0x3dde4422	0.10852839
208	0x3e4a0205	0.19727333
209	0x3d1cb5a7	0.038259175
210	0x3d733894	0.05938013
211	0x3ccd8e40	0.025092244
212	0xbec015e4	-0.375167
213	0x3c60d184	0.013721827
214	0x3dd81e14	0.10552612
215	0xbe69fcf3	-0.22850399
216	0xbcb41b15	-0.02198557
217	0xbc114cc5	-0.008868401
218	0x3e69a938	0.22818458
219	0xbe4766c6	-0.19472799
220	0x3ebe379a	0.37151796
221	0x3db937c7	0.09043842
222	0xbd3252c3	-0.04353596
223	0xbdb02f17	-0.08602732
224	0xbe120653	-0.14260225
225	0x3d4124cf	0.047154244
226	0x3d1dc818	0.038520902
227	0xbe96fa01	-0.29487613
228	0xbcfcd49f	-0.030863104
229	0x3ebe9fe5	0.37231365
230	0x3eb793ab	0.3585485
231	0xbe1f8762	-0.15578988
232	0x3ed2b3f0	0.41152906
233	0xbb7360b4	-0.0037136497
234	0x3e4861ce	0.1956856
235	0xbe3804e2	-0.17970613
236	0xbea5ca02	-0.32380682
237	0x3d93ddcc	0.07220039
238	0x3ea76659	0.32695273
239	0xbe146944	-0.1449328
240	0xbe42a6da	-0.19008961
241	0x3e0f8362	0.14014962
242	0x3d07e907	0.033181217
243	0xbe8aa7b1	-0.27081063
244	0xbe197acb	-0.14988248
245	0xbe3610cb	-0.17779844
246	0xbf5e40a0	-0.8681736
247	0x3e7e9582	0.2486172
248	0x3e087a86	0.13327989
249	0x3c3ff04d	0.011715007
250	0x3d21097f	0.039315697
251	0x3db2813f	0.08716058
252	0xbc1d4ef5	-0.009601344
253	0xbe269fac	-0.16271847
254	0x3d85e1cd	0.06537209
255	0x3df6335b	0.12021514

fc2.bias f4 [256]
0	0xbd9fe256	-0.07806842
1	0xbe53591a	-0.20639458
2	0x3e88ccb7	0.26718685
3	0x3de5dd12	0.112238064
4	0xbe034524	-0.12819344
5	0xbd7440ff	-0.059632298
6	0xbd9a62f9	-0.07538409
7	0xbcedf040	-0.029045224
8	0xbddfefb5	-0.10934392
9	0xbdadfb7e	-0.08495234
10	0xbdb344eb	-0.087533794
11	0xbe1af37e	-0.15131947
12	0xbe5c35d1	-0.21504904
13	0xbb1c801b	-0.0023880068
14	0xbeae381b	-0.3402718
15	0xbdf13c73	-0.11779108
16	0xbe221d16	-0.15831408
17	0xbe87cfe3	-0.26525792
18	0x3ae561bc	0.0017500441
19	0xbba53687	-0.0050419006
20	0xbe1f8b5e	-0.15580508
21	0x3e337566	0.17525253
22	0xbe5a563b	-0.21321957
23	0x3ddde04e	0.10833798
24	0xbb5a52bb	-0.0033313471
25	0xbe14e9ac	-0.14542264
26	0xbd2655c2	-0.04060913
27	0xbe29eeaf	-0.16594957
28	0xbe241f02	-0.16027454
29	0xbdcede3e	-0.10100983
30	0xbe3a0d9c	-0.18169254
31	0xbe312ee4	-0.17303044
32	0xbe8a12f6	-0.2696759
33	0xbe82a065	-0.25512996
34	0xbdc5824f	-0.09643995
35	0xbe36a928	-0.17837965
36	0xbe075ac6	-0.13218221
37	0x3e5a5147	0.21320067
38	0xbd86f89d	-0.06590388
39	0xbdf84598	-0.12122649
40	0xbe762fbc	-0.24041647
41	0x3e797ad3	0.2436326
42	0xbb9eddcd	-0.004848218
43	0xbd2bfdfe	-0.041990273
44	0x3da54f97	0.08071821
45	0x3e820862	0.2539702
46	0x3dba3b74	0.09093371
47	0x3d202465	0.03909721
48	0xbe282573	-0.16420536
49	0xbe10b71f	-0.14132355
50	0xbd52e448	-0.051487237
51	0x3d7cf7f9	0.061759923
52	0x3eba1936	0.3634736
53	0xbe1493e0	-0.14509535
54	0xbdb80e70	-0.08987129
55	0xbeb34cd3	-0.3501955
56	0xbe176c7f	-0.14787482
57	0x3d287bc2	0.04113365
58	0xbcf22927	-0.029560639
59	0xbe88d5f9	-0.26725748
60	0xbdfa88eb	-0.12233146
61	0xbe0a7e3a	-0.13524714
62	0x3c8c6beb	0.017141303
63	0xbd870986	-0.06593613
64	0xbd4e6703	-0.05039121
65	0xbe2a2151	-0.16614272
66	0xbd2693e0	-0.04066837
67	0xbe15b596	-0.14620051
68	0xbe040e50	-0.12896085
69	0xbbae6fbe	-0.0053233793
70	0x3c42472e	0.011857791
71	0x3d868fac	0.06570372
72	0x3dba9891	0.09111131
73	0xbdb0c5c8	-0.08631474
74	0xbdb44122	-0.088014856
75	0xbbf5a491	-0.0074964245
76	0xbe7935d4	-0.2433694
77	0xbd694b62	-0.056956656
78	0xbea293e9	-0.31753471
79	0x3ddf4964	0.1090267
80	0x3d47a9ac	0.048745796
81	0x3d9c40d9	0.07629556
82	0xbe824e15	-0.25450197
83	0xbdf8c5d8	-0.12147111
84	0x3e9948b2	0.29938275
85	0xbe6f6e97	-0.2338203
86	0xbdea8b09	-0.114523
87	0xbdc0ef14	-0.094206005
88	0x3d199da3	0.03750385
89	0xbc8b6ee1	-0.017020645
90	0x3e371af0	0.1788137
91	0x3ce03afe	0.02737188
92	0x3d88d994	0.06682125
93	0xbdc7698b	-0.097369276
94	0xbe4300f7	-0.19043337
95	0xbb625f97	-0.003454184
96	0x3cb51f2f	0.022109596
97	0x3dd95da2	0.10613562
98	0xbe8897b9	-0.26678255
99	0x3e19d830	0.15023875
100	0x3e1ebef8	0.15502536
101	0xbdcee742	-0.10102703
102	0x3d055957	0.032555904
103	0x3daf2120	0.0855124
104	0xbdb5a832	-0.08869971
105	0xbe8dc122	-0.2768641
106	0xbd1e4c4f	-0.038646992
107	0xbe0308f8	-0.1279639
108	0x3de7431e	0.112920985
109	0xbe868ac8	-0.26277757
110	0x3bef32c6	0.007299754
111	0x3dd8a563	0.1057842
112	0xbd91833a	-0.071051076
113	0xbe14201e	-0.14465377
114	0x3ed365fe	0.4128875
115	0x3e333ba3	0.17503218
116	0xbec1a601	-0.37821963
117	0xbdd31dbb	-0.10308405
118	0x3dcbf452	0.0995871
119	0xbe336338	-0.17518318
120	0xbc9b94d4	-0.018991865
121	0xbccf04ba	-0.025270808
122	0xbb899890	-0.004199095
123	0xbea15dff	-0.31517026
124	0x3d3a15fd	0.045431126
125	0xbdeaa67f	-0.11457538
126	0xbbc32b18	-0.005956065
127	0x3c872225	0.016495774
128	0xbe39c630	-0.18142009
129	0x3d4a1543	0.049336683
130	0xbca1e71d	-0.019763524
131	0x3e16ca90	0.14725709
132	0xbe5ab65a	-0.21358624
133	0x3c5a2a1c	0.013315704
134	0xbe710693	-0.23537664
135	0x3dd47b7c	0.10375115
136	0xbcffea0f	-0.031239538
137	0x3d2a00b7	0.041504588
138	0x3e805094	0.25061476
139	0xbc81d97e	-0.015850779
140	0x3e02757c	0.12740129
141	0xbdb6ef8b	-0.08932408
142	0x3db2cf5f	0.08730959
143	0x3d01f609	0.031728778
144	0xbe0bc138	-0.13647926
145	0xbcd7acad	-0.026327455
146	0xbe4e500b	-0.20147721
147	0x3e960c85	0.29306427
148	0x3d69f81e	0.05712139
149	0x3bc95fa0	0.0061454326
150	0xbd3005d4	-0.042974308
151	0xbd2d85ef	-0.042364057
152	0xbd223a97	-0.039606657
153	0x3e0499fb	0.12949364
154	0xbeb345a4	-0.3501407
155	0xbe4f52a3	-0.20246367
156	0xbdaa3e66	-0.08312683
157	0x3e7c358e	0.24629804
158	0xbd31e4a8	-0.043430954
159	0x3d0a7b13	0.03380878
160	0xbe4486f3	-0.19192104
161	0x39bc63af	0.00035932424
162	0xbcecac89	-0.028890865
163	0x3bb941b8	0.0056535862
164	0x3dcdbbaf	0.100455634
165	0x3e4edd96	0.20201716
166	0xbc8b98a2	-0.017040554
167	0x3dfcbfd4	0.12341276
168	0x3e21b60a	0.15792099
169	0x3e435e44	0.19078928
170	0x3d64933f	0.055804487
171	0xbdae0940	-0.08497858
172	0xbe1c8e40	-0.15288639
173	0x3d3f4e07	0.046705272
174	0x3e0b8dd4	0.13628322
175	0xbdd90c52	-0.10598053
176	0x3db5363b	0.08848234
177	0xbcb457bd	-0.022014493
178	0xbdf2bd31	-0.11852492
179	0xbcbdb614	-0.02315811
180	0xbe03deb5	-0.12877925
181	0xbe51dccb	-0.20494382
182	0xbec64cbb	-0.38730416
183	0x3d9d761a	0.07688542
184	0xbd243138	-0.040086
185	0x3e66884f	0.22512935
186	0xbdd43f41	-0.10363627
187	0xbdcb5e71	-0.09930123
188	0x3e09107c	0.13385195
189	0x3e24165b	0.16024153
190	0x3d93fa8a	0.07225521
191	0x3ca035f6	0.01955698
192	0x3cf89426	0.03034408
193	0x3e4664d5	0.19374402
194	0xbcac3391	-0.021020683
195	0x3e893b95	0.2680327
196	0xbe42b13f	-0.19012927
197	0xbe59f1d1	-0.21283652
198	0x3c591b09	0.013251075
199	0xbd830da3	-0.063990854
200	0x3ccfaf99	0.025352286
201	0xbd1b731a	-0.037951566
202	0xbbf3ced6	-0.0074404282
203	0xbe07ea39	-0.13272943
204	0x3e777680	0.24166298
205	0xbdaf99a2	-0.08574225
206	0xbdd2180d	-0.102584936
207	0x3d4bf9a7	0.049798634
208	0xbde0d0b1	-0.10977305
209	0xbdc624d9	-0.09674997
210	0x3d892d11	0.06698049
211	0x3d60821a	0.054811575
212	0x3c01154d	0.007878614
213	0xbc9a89ef	-0.0188646
214	0xbdc96d9c	-0.098353595
215	0x3c695718	0.014241956
216	0x3d377a9e	0.04479467
217	0x3dac5965	0.08415488
218	0x3d50f318	0.051013082
219	0xbe0de24c	-0.13855857
220	0x3de1856b	0.110117756
221	0xbd9f1b43	-0.07768872
222	0xbe148d9e	-0.14507148
223	0xbdfceb22	-0.123495355
224	0xbd9faf7d	-0.077971436
225	0x3d3c7c7f	0.046017166
226	0xbe163363	-0.1466804
227	0x3dc92fe3	0.09823587
228	0xbe59ce39	-0.21270074
229	0x3d079879	0.033104394
230	0xbdcf7503	-0.1012974
231	0x3e276384	0.16346556
232	0x3d0d8338	0.034548968
233	0xbd9b6139	-0.07586903
234	0xbb14cf6c	-0.002270664
235	0xbe0110d8	-0.12604082
236	0xbd8f8c30	-0.070091605
237	0xbe23e053	-0.16003542
238	0xbdb7047f	-0.089364044
239	0x3d256b30	0.040385425
240	0x3e264951	0.16238905
241	0xbe3cb2bd	-0.18427558
242	0x3daf6862	0.08564831
243	0xbe570b96	-0.21000513
244	0xbd64990c	-0.05581002
245	0xbeb062ae	-0.34450287
246	0x3e063a04	0.13108069
247	0xbe1c6830	-0.1527412
248	0xbe039d41	-0.12852956
249	0xbd6ed906	-0.05831244
250	0x3e9f833b	0.31154808
251	0xbd2aa6ab	-0.041662853
252	0xbd29258b	-0.04129557
253	0xbd9e5050	-0.07730162
254	0xbe2cf7db	-0.16891424
255	0x3dd16a2d	0.102253295

fc3.weight f4 [4, 256]
0	0x3f4ad22e	0.7922696
1	0xbf051fbb	-0.5200154
2	0x3ede3bf3	0.43405113
3	0xbf5c1dc1	-0.859829
4	0x3f95f542	1.1715472
5	0x3e80f585	0.25187317
6	0xbf92418a	-1.1426251
7	0x3c26c729	0.010179319
8	0x3ea926af	0.33037326
9	0xbf5b5d8a	-0.85689604
10	0x3fcdcd2a	1.6078236
11	0x3e258646	0.16164503
12	0x4001925e	2.0245585
13	0xbf6cbc09	-0.9247442
14	0xbe0f4935	-0.1399277
15	0x3f6340fb	0.8877103
16	0x3ed7611d	0.4206628
17	0x3f6af214	0.9177563
18	0xbfe14c63	-1.7601436
19	0x3e861531	0.26188043
20	0x3e888828	0.2666638
21	0x3e070e4e	0.1318905
22	0x3ea2eaa0	0.3181963
23	0xbe1495cf	-0.14510272
24	0x3f0ac54a	0.5420729
25	0x3eae2456	0.34012097
26	0xbf949fb4	-1.1611238
27	0xbe72c1ef	-0.23706792
28	0x3ea20e09	0.31651333
29	0xbfc5a6de	-1.5441549
30	0x3e067103	0.13129048
31	0x3eba979d	0.36443797
32	0xbfa401f5	-1.2813097
33	0x3e53a690	0.20669007
34	0xbdb1c48f	-0.08680069
35	0x3f42de46	0.7612041
36	0x3f6d9ddc	0.92819
37	0x3f944666	1.1583984
38	0x3f6cda5a	0.9252068
39	0xbebd2a01	-0.3694611
40	0xbe572505	-0.21010216
41	0x3e32e7db	0.17471258
42	0xbe3fcf11	-0.18731333
43	0x3f9a4358	1.2051802
44	0xbedee9fb	-0.43537888
45	0x3f9058e9	1.1277133
46	0x3f86747c	1.0504298
47	0x3f163534	0.5867493
48	0xbf2da3ba	-0.6782795
49	0x3f7f5d8d	0.9975212
50	0x3f2b653c	0.66951346
51	0x3ed81bd8	0.42208743
52	0x3f7de26c	0.9917362
53	0x3fa2261f	1.2667884
54	0x3ea1accb	0.31577143
55	0xbd846d14	-0.064661175
56	0x3feb04f9	1.8360893
57	0x3fa4225f	1.2822989
58	0xbf68ac51	-0.90887934
59	0x3f53b089	0.82691246
60	0x3d16bbb1	0.03680009
61	0xbe9bcc1d	-0.30429164
62	0xbf24ebb2	-0.6442214
63	0xbeabc1b8	-0.33546233
64	0xbfc4f688	-1.5387735
65	0xbf970acd	-1.1800171
66	0x3d9e2ee9	0.07723791
67	0xbe2bda33	-0.16782455
68	0xbf4eb3ea	-0.8074328
69	0xbfd69c3b	-1.6766428
70	0x3e8b9fe1	0.27270415
71	0x3f1f0c76	0.6212839
72	0x3fb007bb	1.3752359
73	0x3eafa652	0.3430658
74	0xbe3df551	-0.18550612
75	0x3e131924	0.14365059
76	0x3e1980e5	0.14990576
77	0x3e69a77f	0.22817801
78	0x3f93e19c	1.1553226
79	0xbe37df98	-0.17956388
80	0x3faa118b	1.3286604
81	0x3e9be817	0.30450508
82	0xbf7f73db	-0.99786156
83	0x3f50a1dc	0.8149698
84	0xbed88c24	-0.4229442
85	0x3e815fbe	0.25268358
86	0x3f8d967b	1.1061548
87	0xbf17fba8	-0.5936837
88	0x3e9ab4c5	0.3021604
89	0x3e96f41a	0.2948311
90	0xbe445f4d	-0.1917698
91	0xbfe5bd16	-1.794833
92	0x3f887aef	1.0662516
93	0xbfeef02d	-1.8667046
94	0x3f833d44	1.0253072
95	0xbeb0bc9d	-0.345189
96	0x3e5aef75	0.21380408
97	0xbfa2dfb5	-1.272452
98	0xbf9b5178	-1.2134237
99	0x3ed6ace3	0.41928777
100	0xbff43706	-1.9079292
101	0xbdb8b1fa	-0.09018321
102	0x3f676662	0.903906
103	0x3ea8b51c	0.32950675
104	0xbf087c8e	-0.53315055
105	0x3ef71007	0.48254415
106	0xbe8a3a0f	-0.2699742
107	0x3df9d5fe	0.12199019
108	0xbf1d790c	-0.6151283
109	0x3e608774	0.21926671
110	0xbf15b9c9	-0.5848661
111	0xbfce2e2a	-1.6107838
112	0xbf082fac	-0.5319774
113	0xbf700cfe	-0.93769825
114	0x3edbb326	0.42910117
115	0x3eca46b2	0.3950706
116	0x3f01b43e	0.5066565
117	0x3f81e1a2	1.0146983
118	0x3f8abc28	1.0838671
119	0xbecab723	-0.39592847
120	0xbfdaafd5	-1.708491
121	0xbf83b4a6	-1.0289505
122	0x3f119050	0.5686083
123	0x3f49ab65	0.7877715
124	0xbe2b4a60	-0.1672759
125	0x3de1495c	0.1100032
126	0xbd9cb070	-0.0765084
127	0x3effcb73	0.49959907
128	0xbf3d14fe	-0.73860157
129	0xbf5d69d1	-0.8648959
130	0x3fd5d91a	1.6706879
131	0xbe70d64f	-0.23519252
132	0xbf87986d	-1.0593392
133	0xbf815ef6	-1.0107105
134	0xbfac6dba	-1.3470986
135	0xbfbd9fc4	-1.4814382
136	0x3e093b08	0.13401425
137	0xbfa063ec	-1.2530494
138	0x3efb6f15	0.49108186
139	0xbe996588	-0.29960275
140	0x3ed5eb18	0.41780925
141	0xbefcdf56	-0.49389142
142	0x3f24796d	0.6424778
143	0xbf83c3e7	-1.029416
144	0x3e7f8f8c	0.24957103
145	0x3f1e7cb8	0.61909056
146	0xbfbeea23	-1.4915203
147	0xbf136069	-0.57568985
148	0x3f558cf9	0.8341823
149	0xbf513f06	-0.8173679
150	0x3fe48bf1	1.7855207
151	0xbfae9c1e	-1.3641393
152	0x3f679430	0.9046049
153	0xc0099971	-2.1499903
154	0x3ef065ab	0.46952567
155	0x3efe7c18	0.4970405
156	0x3f05359f	0.52034944
157	0x3f4ee481	0.8081742
158	0xbfcfe532	-1.624182
159	0x3f210e29	0.6291223
160	0xbf94d3fb	-1.1627191
161	0x3ff16990	1.886034
162	0xbf86683b	-1.0500559
163	0x3eee915b	0.46595272
164	0xbf20d9bc	-0.62832236
165	0x3f815eac	1.0107017
166	0xbf3fdb09	-0.74943596
167	0xbd80ead8	-0.06294793
168	0x3ead06a8	0.3379414
169	0x3fadaee4	1.3568997
170	0x3f523c3f	0.8212318
171	0xc00ac918	-2.1685238
172	0x3d26e829	0.04074875
173	0x3e2c1fa7	0.1680895
174	0x3d680dc0	0.056653738
175	0x3ec44512	0.38333946
176	0x3d44512b	0.04792897
177	0xbd96c231	-0.07361258
178	0x3f4224e3	0.75837535
179	0xbf8a720d	-1.0816056
180	0x3f82a521	1.0206643
181	0xbf587c32	-0.84564507
182	0xbf16cb56	-0.58904016
183	0x3e9466bd	0.28984633
184	0x3fcaceb1	1.5844327
185	0xbcb4d709	-0.022075193
186	0xbe9dcbe0	-0.30819607
187	0x3f82463b	1.0177683
188	0x3e5a74f7	0.21333681
189	0x3f4292b7	0.7600512
190	0x3ea5a32c	0.32351053
191	0x3e92d6f2	0.28679615
192	0x3e1dc636	0.15407643
193	0x3f3f31d2	0.74685395
194	0x3dab9e63	0.08379819
195	0x3f0c741b	0.5486466
196	0xbff3b204	-1.9038701
197	0x3f746c50	0.9547777
198	0x3f8fe489	1.1241618
199	0x3f1647f1	0.58703524
200	0x3fca7b53	1.5818886
201	0xbeca7ae0	-0.3954687
202	0xbfdd3f7b	-1.7284998
203	0x3e4ebe27	0.20189725
204	0x3f26e411	0.6519175
205	0x3e4fa95b	0.20279448
206	0xbee3168b	-0.44353136
207	0x3f7cbe2d	0.98727685
208	0x3f9500e0	1.1640892
209	0x3f3d0477	0.7383494
210	0xbe306b6c	-0.17228478
211	0xbf355f34	-0.70848393
212	0x3f8d0aff	1.1018981
213	0xbfbf263f	-1.4933547
214	0xc000bbbc	-2.0114584
215	0x3dd2c690	0.10291779
216	0xbf23c332	-0.6396972
217	0xbfd620d1	-1.6728765
218	0x3ef38a4c	0.4756645
219	0x3ef19483	0.47183618
220	0xbe89f757	-0.26946518
221	0x3fbc604a	1.4716885
222	0x3f05ce0b	0.5226752
223	0x3f03444c	0.5127609
224	0xbf24701b	-0.6423356
225	0xbfa3f459	-1.2808944
226	0x3f2366ed	0.6382893
227	0x3fe1fa0b	1.7654432
228	0x3dd4d011	0.10391248
229	0xbed4f34b	-0.41591868
230	0xbee7c3db	-0.45266613
231	0xbd440ac2	-0.047861822
232	0xbfb1a825	-1.3879439
233	0x3eb9a39a	0.3625763
234	0x3f072beb	0.5280139
235	0x3e66f712	0.22555187
236	0x3e671a3a	0.22568598
237	0x3d81e01a	0.06341572
238	0x3ea6dba9	0.32589462
239	0xbf2d0f7c	-0.6760175
240	0x3fab9837	1.3405827
241	0xbf83bd12	-1.0292075
242	0xbfdeffb5	-1.7421786
243	0x3f35cbfe	0.7101439
244	0xbf8005f2	-1.0001814
245	0x3e837781	0.25677112
246	0xbddba5bf	-0.10724973
247	0x3e860aa6	0.2618
248	0xbda8c51f	-0.08240723
249	0x3e22ed7e	0.15910909
250	0xbf7db276	-0.99100435
251	0x3f1dbc2d	0.6161526
252	0x3f97c3b3	1.1856598
253	0xbe807d5e	-0.25095648
254	0x3f580070	0.8437567
255	0xbfb859cc	-1.4402404

fc3.bias f4 [4]
0	0x3e4236ab	0.18966167
1	0x3c420f21	0.011844427
2	0xbe391c34	-0.18077165
3	0x3c67f4f3	0.014157522

fc1.weight f4 [256, 33]
0	0x3e979fe3	0.2961417
1	0x3fea58dc	1.8308368
2	0x3eeaed63	0.45884237
3	0xbfbf3672	-1.493849
4	0xbec6a114	-0.38794768
5	0x3ed327e4	0.41241372
6	0xbf9b28a7	-1.2121781
7	0xbee924e7	-0.45535967
8	0xbd25db02	-0.040492065
9	0xbee12481	-0.43973163
10	0x3e1c3d63	0.15257792
11	0x3e8845d9	0.2661579
12	0xbeced4c2	-0.40396696
13	0xbe075dbd	-0.13219352
14	0x3d09ad5d	0.033612598
15	0x3e91695c	0.28400695
16	0xbe922329	-0.2854245
17	0x3e531aa4	0.20615631
18	0x3dafd3f6	0.0858535
19	0xbf03d38a	-0.5149466
20	0x3d908bef	0.0705794
21	0xbe83acaf	-0.25717685
22	0xbe8404c9	-0.257849
23	0xbe88cf1a	-0.26720506
24	0x3ea39008	0.31945825
25	0xbb058ebc	-0.0020379266
26	0x3daab0a4	0.08334473
27	0x403cc9ab	2.9498088
28	0xbe3ae57c	-0.18251604
29	0xbd6ba102	-0.057526596
30	0xc0379ddd	-2.8690102
31	0xbd0bee06	-0.034162544
32	0xc024a9d5	-2.5728657
33	0xbdda16c6	-0.10648875
34	0x3f90bcd5	1.1307627
35	0xbed58a0b	-0.4170688
36	0xbff6c233	-1.9278015
37	0xbf52185b	-0.82068413
38	0x3c9fcd3d	0.019507045
39	0x3fc03d48	1.5018702
40	0x3e819cbf	0.253149
41	0xbbbb5992	-0.0057174647
42	0xbfbd6779	-1.4797202
43	0x3e41163a	0.18856135
44	0xbc9f5a34	-0.019452192
45	0x3d30f0fc	0.04319857
46	0x3e95ae50	0.29234552
47	0x3f35cae7	0.7101273
48	0x3f2debac	0.6793773
49	0xbf616567	-0.8804535
50	0x3f3746fb	0.7159268
51	0xbf138f82	-0.5764085
52	0xbf89ed6c	-1.077558
53	0x3e2217dc	0.15829414
54	0xbf33221c	-0.6997392
55	0xbe4da898	-0.20083845
56	0x3d6edeb2	0.058317848
57	0x3f1ce87e	0.61292255
58	0x3ea1e8fc	0.31623065
59	0xbe254e59	-0.16143169
60	0x404121f6	3.0176978
61	0x3d2852dc	0.041094646
62	0x3cfc3618	0.030787513
63	0xc04474c5	-3.069627
64	0x3d4fc506	0.050725006
65	0xbe5c4736	-0.2151154
66	0xbe3bd426	-0.18342647
67	0x3e776e05	0.24163063
68	0xc00960ff	-2.1465452
69	0xbf0ecc25	-0.5578025
70	0xbe2103d9	-0.15724124
71	0x3eed8c1c	0.46395957
72	0xbf78628a	-0.9702536
73	0x3e81b4c7	0.25333235
74	0x3e32a4d3	0.17445688
75	0xbe38af10	-0.18035531
76	0x3d97fefb	0.074216805
77	0x3e2042b6	0.15650448
78	0xbe5eb6f2	-0.21749476
79	0xbda535bd	-0.080668904
80	0xbeca1273	-0.394672
81	0x3fdeaa21	1.7395669
82	0x3e2d876d	0.16946192
83	0xbe64dfe1	-0.22351028
84	0xbda19e83	-0.07891562
85	0xbeb3226c	-0.349872
86	0xbdc9c9bd	-0.09852932
87	0xbe0d125d	-0.13776536
88	0xbe47c9bb	-0.19510548
89	0xbdf9d099	-0.1219799
90	0xbe3fa9d5	-0.1871713
91	0x3e73cc5a	0.23808423
92	0x3ec340ac	0.38135278
93	0x3ff34f0b	1.9008497
94	0xbe65a44a	-0.22425953
95	0xbc554f28	-0.013019361
96	0xbfee3930	-1.8611202
97	0x3d41f058	0.04734835
98	0x3feba1a4	1.8408704
99	0x3f056d92	0.52120316
100	0x40278d7d	2.6180108
101	0xbf89bd3b	-1.0760874
102	0xbf3b6c78	-0.73212385
103	0xbd836e18	-0.06417483
104	0x3fa3ed5b	1.280681
105	0xbf355271	-0.7082892
106	0x3d588fbf	0.052871462
107	0xbf317d8e	-0.69332206
108	0xbf197330	-0.5994139
109	0x3dd9e748	0.106398165
110	0x3ec75142	0.38929182
111	0x3d8309eb	0.06398376
112	0x3f83a1f1	1.0283796
113	0x3dc3c1ce	0.0955845
114	0x3f20ae03	0.6276552
115	0xbd0be0d8	-0.034149975
116	0xbe886890	-0.26642275
117	0x3da23f7d	0.07922266
118	0xbdb662d1	-0.089055665
119	0x3e4a8424	0.1977697
120	0x3eb186ae	0.34673065
121	0x3da51913	0.08061423
122	0xbd84ed0c	-0.064905256
123	0x3e3bf87a	0.18356505
124	0x3dd1852b	0.10230478
125	0xbf7b81d8	-0.98245
126	0x4028c826	2.637216
127	0xbe9f3e46	-0.31102198
128	0x3cb9bc94	0.022672929
129	0xc02a0147	-2.656328
130	0xbd439092	-0.047745295
131	0x3f544c79	0.8292919
132	0x3ee166df	0.44023797
133	0x40092c5d	2.1433327
134	0x3d34d7e5	0.044151206
135	0xbfccf836	-1.6013248
136	0x3f33ffbb	0.7031209
137	0xbf5bfeb9	-0.8593555
138	0x3f21382b	0.6297633
139	0xbf0890ea	-0.5334612
140	0xbe14a722	-0.14516881
141	0xbf015d0f	-0.5053262
142	0x3ea71e06	0.32640094
143	0x3e3fd0a1	0.1873193
144	0x3d1004bd	0.03516077
145	0xbe34fc20	-0.17674303
146	0x3eee2115	0.46509615
147	0x3f2ea8cc	0.68226314
148	0x3ee1fb5a	0.4413708
149	0xbf1eac4d	-0.6198166
150	0x3f06f571	0.52718264
151	0x3e35af96	0.17742762
152	0x3e8cb63b	0.2748278
153	0xbd833f7d	-0.06408594
154	0x3e961ee5	0.29320446
155	0x3e236b61	0.1595893
156	0x3eb4b870	0.35296965
157	0xbd190f82	-0.037368305
158	0xbe862ed4	-0.26207602
159	0x40462fbb	3.0966632
160	0xbe899152	-0.26868683
161	0x3d00a3b4	0.03140612
162	0xc0494dc5	-3.1453717
163	0xbd6fc600	-0.058538437
164	0xbe9adae8	-0.30245137
165	0x3daec6af	0.0853399
166	0x3fbc8528	1.4728136
167	0xbf2cb953	-0.6747028
168	0xbfb461ea	-1.4092381
169	0xbe3eab2f	-0.18619989
170	0x3f543d5b	0.8290612
171	0xbe8947b9	-0.26812533
172	0x3e9392f6	0.2882306
173	0xbd0a83b6	-0.033817016
174	0x3dff7e6a	0.124752834
175	0xbe1d88b7	-0.15384184
176	0x3d576b74	0.05259271
177	0xbf1a9875	-0.6038888
178	0x3c30a077	0.010780445
179	0xbe0649c7	-0.13114081
180	0x3f70b6f2	0.9402915
181	0x3ce7f729	0.028316097
182	0xbf15db81	-0.5853806
183	0xbf3a4662	-0.72763646
184	0xbedd8809	-0.4326785
185	0x3da8e239	0.082462735
186	0x3de52580	0.11188793
187	0xbe120c74	-0.14262563
188	0x3e374f4d	0.17901345
189	0x3dd2b3a4	0.1028817
190	0x3e502243	0.2032557
191	0xbe20eac8	-0.15714562
192	0x403a4955	2.9107258
193	0xbe8690cb	-0.26282343
194	0x3d3118be	0.043236487
195	0xc03ca3fc	-2.9475088
196	0x3ac171c0	0.0014758632
197	0x3e502f59	0.20330562
198	0xbf09ab27	-0.5377678
199	0x3f6d29f2	0.9264213
200	0x3f840e36	1.0316837
201	0xbf002a59	-0.5006462
202	0xbf606875	-0.8765939
203	0xbd5fb396	-0.054614626
204	0x3f49833e	0.78715885
205	0x3eaeec08	0.34164453
206	0xbe8acb89	-0.2710841
207	0xbf0c0d68	-0.54707956
208	0xbe14157d	-0.14461322
209	0x3e020ce3	0.12700228
210	0xbebcfb5e	-0.36910528
211	0xbf4494a4	-0.7678931
212	0xbe65731a	-0.22407189
213	0xbd3607b4	-0.04444094
214	0x3f017c86	0.5058063
215	0xbf7d6c9c	-0.9899385
216	0xbdb1b811	-0.08677686
217	0xbe725823	-0.23666434
218	0x3e12571f	0.14291047
219	0xbde4ec21	-0.111778505
220	0x3e6573f1	0.2240751
221	0xbf30282a	-0.68811285
222	0xbd403597	-0.046926107
223	0x3f065023	0.5246603
224	0x3f1882d8	0.5957465
225	0x403c8758	2.9457607
226	0xbf2d5ccc	-0.6771972
227	0xbd5d706a	-0.054062285
228	0xc03a9c02	-2.915772
229	0xbd6567c6	-0.05600717
230	0xc038fdab	-2.8904827
231	0xbf161043	-0.58618563
232	0x3efcb297	0.49355003
233	0xbfb8912e	-1.4419305
234	0xbe984866	-0.29742736
235	0xbf742dec	-0.9538257
236	0x3e052461	0.13002159
237	0xbf6479db	-0.89248437
238	0xbed7140e	-0.42007488
239	0x3f064cb5	0.52460796
240	0xbe746048	-0.23864853
241	0xbe2afc6b	-0.16697852
242	0xbe3c62a2	-0.18397
243	0xbe96e18e	-0.2946896
244	0x3d4dc3ce	0.050235562
245	0xbe3f68b0	-0.18692279
246	0x3fa6af3c	1.3022227
247	0x3f58c3f1	0.8467398
248	0x3ed9ac18	0.4251411
249	0x3e6030fb	0.21893685
250	0xbcae5588	-0.021281019
251	0xbe0ff6a4	-0.1405893
252	0x3e2beaf3	0.16788845
253	0xbe67713c	-0.22601789
254	0x3de2dffe	0.11077879
255	0x3e6288d3	0.22122507

fc1.bias f4 [256]
0	0xc03fdfbd	-2.998031
1	0xc03c699f	-2.9439466
2	0xbfd95524	-1.6979108
3	0xc0269724	-2.602975
4	0xc04a9e86	-3.1659255
5	0xc0440d62	-3.0633168
6	0xc042832e	-3.0392566
7	0xbff62f5c	-1.9233203
8	0xc04763a4	-3.1154566
9	0xc03811e8	-2.876093
10	0xc0108e77	-2.2586954
11	0xc03a93d8	-2.9152737
12	0xc0258fdc	-2.5869055
13	0xc016e5ab	-2.3577678
14	0xc0149835	-2.32179
15	0xc0067078	-2.1006145
16	0xc04d8a00	-3.2115479
17	0xc03072a9	-2.7569983
18	0xbfb84648	-1.4396448
19	0xc00e01fe	-2.2188716
20	0xc046ea97	-3.1080682
21	0xbfe79432	-1.8092101
22	0xc01ea354	-2.4787188
23	0xbf36cf2a	-0.7140986
24	0xc04109dc	-3.0162268
25	0xc033e767	-2.8109987
26	0xc03b4438	-2.9260387
27	0xbfa172ca	-1.2613156
28	0xbf20f036	-0.6286653
29	0xc00658c7	-2.0991685
30	0xc0143670	-2.3158226
31	0xc03872e0	-2.8820114
32	0xbf9a8ff9	-1.2075187
33	0xc02c0305	-2.6876843
34	0xc0492a54	-3.1432085
35	0xc00ed640	-2.2318268
36	0xc0294028	-2.6445408
37	0xc02a9e58	-2.6659145
38	0xc0324354	-2.7853594
39	0xc0555d10	-3.333805
40	0x3e870323	0.2636958
41	0xc0480a6a	-3.1256356
42	0xc039423a	-2.8946671
43	0xbf064ca8	-0.5246072
44	0xc039b852	-2.901875
45	0xc00229b0	-2.0337944
46	0xbfac3aa1	-1.3455392
47	0xc0343bbe	-2.8161464
48	0xc04957bb	-3.1459796
49	0xbff0a432	-1.8800108
50	0xc0245bb5	-2.5680974
51	0xc0433045	-3.0498211
52	0xc0118358	-2.2736416
53	0xbff316ba	-1.8991311
54	0xc01c4e8a	-2.4422936
55	0xc00ba1f2	-2.1817594
56	0xc041cd13	-3.0281417
57	0xbfb2e4d9	-1.3976089
58	0xc02b3321	-2.6749957
59	0xbf924ba1	-1.142933
60	0xc0021b58	-2.032919
61	0x3fc765a9	1.5577899
62	0xc035efb6	-2.8427558
63	0xc039acbc	-2.9011679
64	0xc04d2f57	-3.2060144
65	0xc01f0451	-2.4846385
66	0xc02fb8cc	-2.745654
67	0xc01768a2	-2.3657613
68	0xc0111e7c	-2.2674856
69	0xc023e1d8	-2.5606594
70	0xc01db714	-2.4642992
71	0xc038048b	-2.8752773
72	0xc031d2df	-2.7784956
73	0xc033b67a	-2.8080125
74	0xc012bc25	-2.2927334
75	0xc02c7403	-2.6945808
76	0xc03501b4	-2.828229
77	0xc03218ad	-2.782756
78	0xc03502b4	-2.82829
79	0x3d2e65a4	0.0425774
80	0xc033ff6f	-2.8124654
81	0xc02e3dde	-2.722526
82	0xc035eb8a	-2.8425012
83	0xc039e7ea	-2.90478
84	0xbfdf7a24	-1.7459149
85	0xc02aec80	-2.6706848
86	0xc02c732b	-2.6945293
87	0xc01ad6ad	-2.4193528
88	0xc0265d0b	-2.599429
89	0xc0311bd3	-2.7673233
90	0xbfd21a70	-1.6414318
91	0xc031daaa	-2.7789712
92	0xc0318a10	-2.7740517
93	0xc02046d1	-2.5043223
94	0xc0116328	-2.271677
95	0xbfda6af2	-1.7063887
96	0xc0219bb0	-2.5251274
97	0xc0526c5f	-3.2878644
98	0xbfa2f667	-1.2731446
99	0xc0467c3b	-3.1013324
100	0xc02d7a9d	-2.7106087
101	0xc03e70db	-2.9756382
102	0xc0160989	-2.344332
103	0xc03283f4	-2.7893038
104	0xc01091eb	-2.2589061
105	0xbfa011d1	-1.2505437
106	0xbfd09936	-1.6296756
107	0xc00d8e7b	-2.2118213
108	0xc01a9f97	-2.4159906
109	0xc024f2dd	-2.5773232
110	0xc02b6659	-2.6781218
111	0xc00cb103	-2.198304
112	0xc009194f	-2.1421697
113	0xbf780d07	-0.9689488
114	0xc033ca20	-2.8092117
115	0xc01f1814	-2.4858446
116	0xc0520614	-3.281621
117	0xc03c50d0	-2.9424324
118	0xc025e26d	-2.591945
119	0xc03baeed	-2.9325516
120	0xc03d3d0e	-2.9568515
121	0xc03a932b	-2.9152324
122	0xc01e9399	-2.4777586
123	0xc02298f1	-2.5405848
124	0xc032c188	-2.7930622
125	0xc01afa2e	-2.4215198
126	0xc004cb37	-2.0749032
127	0xbfca72ab	-1.5816244
128	0xbfae8050	-1.3632908
129	0xc00e56e2	-2.224053
130	0xc001bc53	-2.0271194
131	0xbffb62b9	-1.9639503
132	0xc04510df	-3.0791547
133	0xc014f5c1	-2.3274996
134	0xc0294d1d	-2.6453316
135	0xc0468200	-3.1016846
136	0xc03ce48c	-2.9514494
137	0xc0055106	-2.0830703
138	0xc00b98eb	-2.1812084
139	0xbfe31d12	-1.7743247
140	0xc03b6a85	-2.9283764
141	0xbff565fd	-1.9171749
142	0xc009aac7	-2.1510484
143	0xc0393786	-2.894014
144	0xc021d673	-2.528714
145	0xbff92427	-1.9464158
146	0xc021340a	-2.5188012
147	0xbfeefd33	-1.867102
148	0xc025b81d	-2.5893624
149	0xc01e7c25	-2.4763272
150	0xc000dec5	-2.0135968
151	0xc00c0f56	-2.188436
152	0xc01c29c0	-2.4400482
153	0xc01267ee	-2.2875934
154	0xc04ecd72	-3.2312894
155	0xbfe184b5	-1.7618624
156	0xbfdfc6d3	-1.7482551
157	0xc00cc304	-2.1994028
158	0xc02f480c	-2.7387724
159	0xc030fd4b	-2.7654598
160	0xbedc6b2c	-0.43050516
161	0xc0342564	-2.8147821
162	0xc00d7193	-2.210057
163	0xbffb67e4	-1.964108
164	0xc02a8142	-2.6641393
165	0xbfe6ed8f	-1.8041247
166	0xc027cb69	-2.6217902
167	0xc054d510	-3.3255043
168	0xc0421a23	-3.0328453
169	0xc0451d1d	-3.079902
170	0xc021ef36	-2.5302253
171	0xc03a15aa	-2.9075723
172	0xbf9772be	-1.1831892
173	0xbf3cd242	-0.7375833
174	0xc013fe8f	-2.312412
175	0xbe99de1a	-0.30052263
176	0xc015c580	-2.3401794
177	0xc0317faa	-2.773417
178	0xc03b1b72	-2.9235501
179	0xc02bc690	-2.6839943
180	0xbefb6a53	-0.49104556
181	0xc01859f6	-2.3804908
182	0xc025bf01	-2.589783
183	0xc02b1c58	-2.673605
184	0xc03033f3	-2.7531707
185	0xc011f823	-2.28077
186	0xc02e974e	-2.727985
187	0xc0393fdc	-2.8945227
188	0xc012615a	-2.2871919
189	0xc02519e1	-2.5797045
190	0xc025239d	-2.5802987
191	0xc0240784	-2.5629587
192	0xbef92d8b	-0.4866756
193	0xc0335e0a	-2.8026147
194	0xbf8722b9	-1.0557472
195	0xc045f3d8	-3.093008
196	0xc0213e83	-2.5194404
197	0xc02b7e24	-2.679574
198	0xc0140640	-2.3128815
199	0xc005142f	-2.079357
200	0xc038112f	-2.8760488
201	0xc021f936	-2.5308356
202	0xc0178c08	-2.3679218
203	0xc034e447	-2.826433
204	0xc01e1d00	-2.47052
205	0xc02a4f9d	-2.6611092
206	0xc03dfe25	-2.9686368
207	0xc01dc62c	-2.4652205
208	0xc022dd17	-2.5447443
209	0xc013f048	-2.3115406
210	0xc01ce594	-2.4515123
211	0xc03e0fdc	-2.969718
212	0xbfaf444f	-1.3692721
213	0xc02c9785	-2.696748
214	0xbff95af9	-1.9480888
215	0xc02d81d4	-2.711049
216	0xc04999a3	-3.1500022
217	0xbff3f4dd	-1.9059101
218	0xc00d8dd3	-2.2117813
219	0xc069ee86	-3.6551833
220	0xc02e3d5f	-2.7224958
221	0xc0209b0f	-2.509464
222	0xc002b636	-2.0423713
223	0xc0376e1f	-2.8660963
224	0xc030b289	-2.760897
225	0xc01c85a7	-2.4456575
226	0xc026317c	-2.5967703
227	0xbf5bb956	-0.85829675
228	0xbfe43e01	-1.7831422
229	0xc03e6933	-2.9751709
230	0xc0290273	-2.6407745
231	0xc02ad7e8	-2.6694279
232	0xc03dd943	-2.9663856
233	0xc0017b18	-2.023138
234	0xc049bc95	-3.1521351
235	0xc03f822c	-2.99232
236	0xbff285d2	-1.8947089
237	0xc015a24c	-2.3380308
238	0xc0288dde	-2.633659
239	0xc04c4ed6	-3.1923118
240	0xc024c8fd	-2.5747674
241	0xc03092af	-2.7589529
242	0xc0191456	-2.3918662
243	0xc01e4649	-2.4730399
244	0xc012229a	-2.283362
245	0xc01d5955	-2.4585774
246	0xc002e183	-2.0450141
247	0xc02b1130	-2.672924
248	0xc008cc50	-2.1374702
249	0xbf9bc026	-1.2168014
250	0xc03a803b	-2.9140766
251	0xc0306b46	-2.7565475
252	0xc0323bea	-2.7849069
253	0xc023daec	-2.560237
254	0xc03b6ad7	-2.928396
255	0xc01b8bcc	-2.4304075
